…
s a summary of our model, showing the different layers, their shapes, and the number of learnable parameters per layer, and is a handy way to make sure that the model is consistent and doing everything we expect it to.\n\nsimple_model.summary()\n\nModel: \"model_1\"\n__________________________________________________________________________________________________\nLayer (type)                    Output Shape         Param #     Connected to                     \n==================================================================================================\ninput_1 (InputLayer)            (None, 8, 8, 1)      0                                            \n__________________________________________________________________________________________________\nconv2d_1 (Conv2D)               (None, 8, 8, 2)      20          input_1[0][0]                    \n__________________________________________________________________________________________________\nconv2d_2 (Conv2D)               (None, 8, 8, 2)      38          conv2d_1[0][0]                   \n__________________________________________________________________________________________________\nmax_pooling2d_1 (MaxPooling2D)  (None, 4, 4, 2)      0           conv2d_2[0][0]                   \n__________________________________________________________________________________________________\nconv2d_3 (Conv2D)               (None, 4, 4, 3)      57          max_pooling2d_1[0][0]            \n__________________________________________________________________________________________________\nconv2d_4 (Conv2D)               (None, 4, 4, 3)      84          conv2d_3[0][0]                   \n__________________________________________________________________________________________________\nup_sampling2d_1 (UpSampling2D)  (None, 8, 8, 3)      0           conv2d_4[0][0]                   \n__________________________________________________________________________________________________\nconv2d_5 (Conv2D)               (None, 8, 8, 2)      56          up_sampling2d_1[0][0]            \n__________________________________________________________________________________________________\nconcatenate_1 (Concatenate)     (None, 8, 8, 4)      0           conv2d_2[0][0]                   \n                                                                 conv2d_5[0][0]                   \n__________________________________________________________________________________________________\nconv2d_6 (Conv2D)               (None, 8, 8, 2)      74          concatenate_1[0][0]              \n__________________________________________________________________________________________________\nconv2d_7 (Conv2D)               (None, 8, 8, 1)      19          conv2d_6[0][0]                   \n==================================================================================================\nTotal params: 348\nTrainable params: 348\nNon-trainable params: 0\n__________________________________________________________________________________________________\n\n\nWe can see, if we go back and check the number of learnable parameters, and the outp
…
, loss = 'mse', metrics = ['accuracy'])\nmodel.summary()\n\nWARNING:tensorflow:From /usr/local/lib/python3.6/dist-packages/keras/backend/tensorflow_backend.py:4432: The name tf.random_uniform is deprecated. Please use tf.random.uniform instead.\n\nModel: \"model_3\"\n__________________________________________________________________________________________________\nLayer (type)                    Output Shape         Param #     Connected to                     \n==================================================================================================\ninput_2 (InputLayer)            (None, 64, 64, 1)    0                                            \n__________________________________________________________________________________________________\nconv2d_8 (Conv2D)               (None, 64, 64, 16)   160         input_2[0][0]                    \n__________________________________________________________________________________________________\nconv2d_9 (Conv2D)               (None, 64, 64, 16)   2320        conv2d_8[0][0]                   \n__________________________________________________________________________________________________\nmax_pooling2d_2 (MaxPooling2D)  (None, 32, 32, 16)   0           conv2d_9[0][0]                   \n__________________________________________________________________________________________________\nconv2d_10 (Conv2D)              (None, 32, 32, 32)   4640        max_pooling2d_2[0][0]            \n__________________________________________________________________________________________________\nconv2d_11 (Conv2D)              (None, 32, 32, 32)   9248        conv2d_10[0][0]                  \n__________________________________________________________________________________________________\nmax_pooling2d_3 (MaxPooling2D)  (None, 16, 16, 32)   0           conv2d_11[0][0]                  \n__________________________________________________________________________________________________\nconv2d_12 (Conv2D)              (None, 16, 16, 64)   51264       max_pooling2d_3[0][0]            \n__________________________________________________________________________________________________\nconv2d_13 (Conv2D)              (None, 16, 16, 64)   102464      conv2d_12[0][0]                  \n__________________________________________________________________________________________________\nmax_pooling2d_4 (MaxPooling2D)  (None, 8, 8, 64)     0           conv2d_13[0][0]                  \n__________________________________________________________________________________________________\nconv2d_14 (Conv2D)              (None, 8, 8, 128)    204928      max_pooling2d_4[0][0]            \n__________________________________________________________________________________________________\nconv2d_15 (Conv2D)              (None, 8, 8, 128)    409728      conv2d_14[0][0]                  \n__________________________________________________________________________________________________\nup_sampling2d_2 (UpSampling2D)  (None, 16, 16, 128)  0           conv2d_15[0][0]                  \n__________________________________________________________________________________________________\nconv2d_16 (Conv2D)              (None, 16, 16, 64)   32832       up_sampling2d_2[0][0]            \n__________________________________________________________________________________________________\nconcatenate_2 (Concatenate)     (None, 16, 16, 128)  0           conv2d_13[0][0]                  \n                                                                 conv2d_16[0][0]                  \n__________________________________________________________________________________________________\nconv2d_17 (Conv2D)              (None, 16, 16, 64)   204864      concatenate_2[0][0]              \n__________________________________________________________________________________________________\nconv2d_18 (Conv2D)              (None, 16, 16, 64)   102464      conv2d_17[0][0]                  \n__________________________________________________________________________________________________\nup_sampling2d_3 (UpSampling2D)  (None, 32, 32, 64)   0           conv2d_18[0][0]                  \n__________________________________________________________________________________________________\nconv2d_19 (Conv2D)              (None, 32, 32, 32)   8224        up_sampling2d_3[0][0]            \n__________________________________________________________________________________________________\nconcatenate_3 (Concatenate)     (None, 32, 32, 64)   0           conv2d_11[0][0]                  \n                                                                 conv2d_19[0][0]                  \n__________________________________________________________________________________________________\nconv2d_20 (Conv2D)              (None, 32, 32, 32)   18464       concatenate_3[0][0]              \n__________________________________________________________________________________________________\nconv2d_21 (Conv2D)              (None, 32, 32, 32)   9248        conv2d_20[0][0]                  \n__________________________________________________________________________________________________\nup_sampling2d_4 (UpSampling2D)  (None, 64, 64, 32)   0           conv2d_21[0][0]                  \n__________________________________________________________________________________________________\nconv2d_22 (Conv2D)              (None, 64, 64, 16)   2064        up_sampling2d_4[0][0]            \n__________________________________________________________________________________________________\nconcatenate_4 (Concatenate)     (None, 64, 64, 32)   0           conv2d_9[0][0]                   \n                                                                 conv2d_22[0][0]                  \n__________________________________________________________________________________________________\nconv2d_23 (Conv2D)              (None, 64, 64, 16)   4624        concatenate_4[0][0]              \n__________________________________________________________________________________________________\nconv2d_24 (Conv2D)              (None, 64, 64, 16)   2320        conv2d_23[0][0]                  \n__________________________________________________________________________________________________\nconv2d_25 (Conv2D)              (None, 64, 64, 2)    290         conv2d_24[0][0]                  \n__________________________________________________________________________________________________\nconv2d_26 (Conv2D)              (None, 64, 64, 1)    3           conv2d_25[0][0]                  \n==================================================================================================\nTotal params: 1,170,149\nTrainable params: 1,170,149\nNon-trainable params: 0\n__________________________________________________________________________________________________\n\n\n/usr/local/lib/python3.6/dist-packages/ipykernel_launcher.py:37: UserWa
…
